…
dataset (158812, 16, 11) (158812,) (array([0, 1, 2, 3, 4, 5, 6]), array([114674,   7377,  15462,  13078,   8068,     67,     86]))
dataset (158816, 16, 11) (158816,) (array([0, 1, 2, 3, 4, 5, 6]), array([114676,   7378,  15462,  13078,   8069,     67,     86]))
dataset (1270545, 16, 11) (1270545,) (array([0, 1, 2, 3, 4, 5, 6]), array([917415,  59021, 123700, 104627,  64552,    538,    692]))
init Conv1dTransformerEncoder with 7 classes
Init model: Conv1dAnomalyTransformer(
  (encoder): AnomalyTransformer(
    (encoder): Encoder(
      (attn_layers): ModuleList(
        (0-9): 10 x EncoderLayer(
          (attention): AttentionLayer(
            (norm): LayerNorm((10,), eps=1e-05, elementwise_affine=True)
            (inner_attention): AnomalyAttention(
              (dropout): Dropout(p=0.5, inplace=False)
            )
            (query_projection): Linear(in_features=10, out_features=10, bias=True)
            (key_projection): Linear(in_features=10, out_features=10, bias=True)
            (value_projection): Linear(in_features=10, out_features=10, bias=True)
            (sigma_projection): Linear(in_features=10, out_features=10, bias=True)
            (out_projection): Linear(in_features=10, out_features=10, bias=True)
          )
          (conv1): Conv1d(10, 512, kernel_size=(1,), stride=(1,))
          (conv2): Conv1d(512, 10, kernel_size=(1,), stride=(1,))
          (norm1): LayerNorm((10,), eps=1e-05, elementwise_affine=True)
          (norm2): LayerNorm((10,), eps=1e-05, elementwise_affine=True)
          (dropout): Dropout(p=0.5, inplace=False)
        )
      )
      (norm): LayerNorm((10,), eps=1e-05, elementwise_affine=True)
    )
    (position_embedding): Time_Positional_Encoding()
    (projection): Linear(in_features=10, out_features=10, bias=True)
  )
  (cnn): Sequential(
    (0): Linear(in_features=11, out_features=32, bias=True)
    (1): ReLU()
    (2): Conv1d(1, 32, kernel_size=(3,), stride=(1,))
    (3): BatchNorm1d(32, eps=1e-05, momentum=0.1, affine=True, track_running_stats=True)
    (4): ReLU()
    (5): Dropout(p=0.3, inplace=False)
    (6): Flatten(start_dim=1, end_dim=-1)
    (7): Linear(in_features=960, out_features=10, bias=True)
  )
  (emb): Sequential(
    (0): Linear(in_features=160, out_features=160, bias=True)
    (1): ReLU(inplace=True)
    (2): Dropout(p=0.4, inplace=False)
    (3): BatchNorm1d(160, eps=1e-05, momentum=0.1, affine=True, track_running_stats=True)
    (4): Linear(in_features=160, out_features=64, bias=True)
  )
)
model size: 0.613MB
Total parameters: 160420
Trainable parameters: 160420
Non-trainable parameters: 0
Model size: 0.61 MB
Optimizer parameters: 218
Epoch 0: loss: 44.28657261056466, cr_loss: 44.28657261056466, acc: 0.19759288669404468, f1: 0.1889412735341763
dataset (158812, 16, 11) (158812,) (array([0, 1, 2, 3, 4, 5, 6]), array([114674,   7377,  15462,  13078,   8068,     67,     86]))
…
