…
dataset (254098, 16, 9) (254098,) (array([0, 1, 2, 3, 4, 5, 6]), array([183478,  11804,  24739,  20924,  12909,    107,    137]))
dataset (63530, 16, 9) (63530,) (array([0, 1, 2, 3, 4, 5, 6]), array([45872,  2951,  6185,  5232,  3228,    27,    35]))
dataset (1270545, 16, 9) (1270545,) (array([0, 1, 2, 3, 4, 5, 6]), array([917415,  59021, 123700, 104627,  64552,    538,    692]))
init Conv1dTransformerEncoder with 7 classes
Init model: Conv1dAnomalyTransformer(
  (encoder): AnomalyTransformer(
    (encoder): Encoder(
      (attn_layers): ModuleList(
        (0-9): 10 x EncoderLayer(
          (attention): AttentionLayer(
            (norm): LayerNorm((11,), eps=1e-05, elementwise_affine=True)
            (inner_attention): AnomalyAttention(
              (dropout): Dropout(p=0.5, inplace=False)
            )
            (query_projection): Linear(in_features=11, out_features=11, bias=True)
            (key_projection): Linear(in_features=11, out_features=11, bias=True)
            (value_projection): Linear(in_features=11, out_features=11, bias=True)
            (sigma_projection): Linear(in_features=11, out_features=11, bias=True)
            (out_projection): Linear(in_features=11, out_features=11, bias=True)
          )
          (conv1): Conv1d(11, 512, kernel_size=(1,), stride=(1,))
          (conv2): Conv1d(512, 11, kernel_size=(1,), stride=(1,))
          (norm1): LayerNorm((11,), eps=1e-05, elementwise_affine=True)
          (norm2): LayerNorm((11,), eps=1e-05, elementwise_affine=True)
          (dropout): Dropout(p=0.5, inplace=False)
        )
      )
      (norm): LayerNorm((11,), eps=1e-05, elementwise_affine=True)
    )
    (position_embedding): Time_Positional_Encoding()
    (projection): Linear(in_features=11, out_features=11, bias=True)
  )
  (cnn): Sequential(
    (0): Linear(in_features=9, out_features=32, bias=True)
    (1): ReLU()
    (2): Conv1d(1, 32, kernel_size=(3,), stride=(1,))
    (3): BatchNorm1d(32, eps=1e-05, momentum=0.1, affine=True, track_running_stats=True)
    (4): ReLU()
    (5): Dropout(p=0.3, inplace=False)
    (6): Flatten(start_dim=1, end_dim=-1)
    (7): Linear(in_features=960, out_features=11, bias=True)
  )
  (emb): Sequential(
    (0): Linear(in_features=176, out_features=176, bias=True)
    (1): ReLU(inplace=True)
    (2): Dropout(p=0.4, inplace=False)
    (3): BatchNorm1d(176, eps=1e-05, momentum=0.1, affine=True, track_running_stats=True)
    (4): Linear(in_features=176, out_features=64, bias=True)
  )
)
model size: 0.685MB
Total parameters: 179199
Trainable parameters: 179199
Non-trainable parameters: 0
Model size: 0.68 MB
Optimizer parameters: 218
Epoch 0: loss: 62.826699469777665, cr_loss: 62.826699469777665, acc: 0.2032488453539297, f1: 0.20057840580128297
dataset (254098, 16, 9) (254098,) (array([0, 1, 2, 3, 4, 5, 6]), array([183478,  11804,  24739,  20924,  12909,    107,    137]))
…
