…
dataset (146976, 16, 9) (146976,) (array([0, 1, 2, 3, 4, 5]), array([104860,   7258,  15349,  11446,   7996,     67]))
dataset (146981, 16, 9) (146981,) (array([0, 1, 2, 3, 4, 5]), array([104863,   7258,  15349,  11447,   7997,     67]))
dataset (1175857, 16, 9) (1175857,) (array([0, 1, 2, 3, 4, 5]), array([838905,  58068, 122796,  91575,  63975,    538]))
init Conv1dTransformerEncoder with 7 classes
Init model: Conv1dAnomalyTransformer(
  (encoder): AnomalyTransformer(
    (encoder): Encoder(
      (attn_layers): ModuleList(
        (0-9): 10 x EncoderLayer(
          (attention): AttentionLayer(
            (norm): LayerNorm((10,), eps=1e-05, elementwise_affine=True)
            (inner_attention): AnomalyAttention(
              (dropout): Dropout(p=0.5, inplace=False)
            )
            (query_projection): Linear(in_features=10, out_features=10, bias=True)
            (key_projection): Linear(in_features=10, out_features=10, bias=True)
            (value_projection): Linear(in_features=10, out_features=10, bias=True)
            (sigma_projection): Linear(in_features=10, out_features=10, bias=True)
            (out_projection): Linear(in_features=10, out_features=10, bias=True)
          )
          (conv1): Conv1d(10, 512, kernel_size=(1,), stride=(1,))
          (conv2): Conv1d(512, 10, kernel_size=(1,), stride=(1,))
          (norm1): LayerNorm((10,), eps=1e-05, elementwise_affine=True)
          (norm2): LayerNorm((10,), eps=1e-05, elementwise_affine=True)
          (dropout): Dropout(p=0.5, inplace=False)
        )
      )
      (norm): LayerNorm((10,), eps=1e-05, elementwise_affine=True)
    )
    (position_embedding): Time_Positional_Encoding()
    (projection): Linear(in_features=10, out_features=10, bias=True)
  )
  (cnn): Sequential(
    (0): Linear(in_features=9, out_features=32, bias=True)
    (1): ReLU()
    (2): Conv1d(1, 32, kernel_size=(3,), stride=(1,))
    (3): BatchNorm1d(32, eps=1e-05, momentum=0.1, affine=True, track_running_stats=True)
    (4): ReLU()
    (5): Dropout(p=0.3, inplace=False)
    (6): Flatten(start_dim=1, end_dim=-1)
    (7): Linear(in_features=960, out_features=10, bias=True)
  )
  (emb): Sequential(
    (0): Linear(in_features=160, out_features=160, bias=True)
    (1): ReLU(inplace=True)
    (2): Dropout(p=0.4, inplace=False)
    (3): BatchNorm1d(160, eps=1e-05, momentum=0.1, affine=True, track_running_stats=True)
    (4): Linear(in_features=160, out_features=64, bias=True)
  )
)
model size: 0.613MB
Total parameters: 160356
Trainable parameters: 160356
Non-trainable parameters: 0
Model size: 0.61 MB
Optimizer parameters: 218
Epoch 0: loss: 13.032206871470468, cr_loss: 13.032206871470468, acc: 0.05161885098844278, f1: 0.049709277364929194
dataset (146976, 16, 9) (146976,) (array([0, 1, 2, 3, 4, 5]), array([104860,   7258,  15349,  11446,   7996,     67]))
…
