nohup: ignoring input
Using GPU for training
CUDA 4 0
USE KMEANS True
dataset (158812, 16, 9) (158812,) (array([0, 1, 2, 3, 4, 5, 6]), array([114674,   7377,  15462,  13078,   8068,     67,     86]))
dataset (158816, 16, 9) (158816,) (array([0, 1, 2, 3, 4, 5, 6]), array([114676,   7378,  15462,  13078,   8069,     67,     86]))
dataset (1270545, 16, 9) (1270545,) (array([0, 1, 2, 3, 4, 5, 6]), array([917415,  59021, 123700, 104627,  64552,    538,    692]))
Init model: ConvNet(
  (encoder): Sequential(
    (0): Sequential(
      (0): Conv2d(1, 64, kernel_size=(3, 3), stride=(1, 1), padding=(1, 1))
      (1): BatchNorm2d(64, eps=1e-05, momentum=0.1, affine=True, track_running_stats=True)
      (2): ReLU()
      (3): MaxPool2d(kernel_size=2, stride=2, padding=0, dilation=1, ceil_mode=False)
    )
    (1): Sequential(
      (0): Conv2d(64, 64, kernel_size=(3, 3), stride=(1, 1), padding=(1, 1))
      (1): BatchNorm2d(64, eps=1e-05, momentum=0.1, affine=True, track_running_stats=True)
      (2): ReLU()
      (3): MaxPool2d(kernel_size=2, stride=2, padding=0, dilation=1, ceil_mode=False)
    )
    (2): Sequential(
      (0): Conv2d(64, 64, kernel_size=(3, 3), stride=(1, 1), padding=(1, 1))
      (1): BatchNorm2d(64, eps=1e-05, momentum=0.1, affine=True, track_running_stats=True)
      (2): ReLU()
      (3): Identity()
    )
    (3): Sequential(
      (0): Conv2d(64, 64, kernel_size=(3, 3), stride=(1, 1), padding=(1, 1))
      (1): BatchNorm2d(64, eps=1e-05, momentum=0.1, affine=True, track_running_stats=True)
      (2): ReLU()
      (3): Identity()
    )
  )
  (emb): Sequential(
    (0): Linear(in_features=512, out_features=128, bias=True)
    (1): ReLU(inplace=True)
    (2): Dropout(p=0.4, inplace=False)
    (3): BatchNorm1d(128, eps=1e-05, momentum=0.1, affine=True, track_running_stats=True)
    (4): Linear(in_features=128, out_features=64, bias=True)
  )
)
model size: 0.713MB
Total parameters: 186112
Trainable parameters: 186112
Non-trainable parameters: 0
Model size: 0.71 MB
Optimizer parameters: 22
Epoch 0: loss: 51.63526448487819, cr_loss: 51.63526448487819, acc: 0.2539616107654613, f1: 0.24586185640013447
dataset (158812, 16, 9) (158812,) (array([0, 1, 2, 3, 4, 5, 6]), array([114674,   7377,  15462,  13078,   8068,     67,     86]))
…
